DigitClassifierApp/app/src/main/assets/mnist.tflite (tflite, 117056 bytes, 6 tensors)

dense/bias f4 [10]
000000 98 f5 90 3b 24 cf 28 3e d7 3b 11 3d 15 e6 34 bd
       0.0044238083 0.16485268 0.03545746 -0.044164736
000010 be 5c 49 bd df bd fc 3c 3d 41 7f bc c7 ec 6d 3d
       -0.04916071 0.030852256 -0.015579519 0.058087137
000020 22 51 da bd a1 66 de bc
       -0.10660006 -0.027148547

conv2d_1/bias f4 [64]
000000 9b 7a 95 bc 08 e0 a6 bd 72 47 0a bd b1 17 98 bd
       -0.01824694 -0.08148199 -0.03375954 -0.07426394
000010 39 69 6e bd e5 da 99 bd 10 81 e2 bb 72 d4 a3 bd
       -0.058205817 -0.07512454 -0.006912358 -0.07999505
000020 ee 78 09 bd 30 a2 73 bd 20 3e 4f bd 7e 99 2f bc
       -0.033562593 -0.059480846 -0.050596356 -0.010717748
000030 2f 73 5e bd 23 39 3a bd a6 c7 1a bc 3c 70 b5 3c
       -0.054309066 -0.045464646 -0.009447014 0.022148244
000040 f3 dd e8 bc 81 3f 19 bd 55 e1 29 bd e9 51 97 3b
       -0.028426146 -0.037414078 -0.04147466 0.0046179187
000050 93 3a 89 bd ba 9a ae bc ac 9e 48 bd 95 94 8a bc
       -0.06700625 -0.021314014 -0.048979446 -0.016916553
000060 b0 77 0a ba a9 02 d9 bc 0f 58 27 bd 2b e2 25 bd
       -0.0005282117 -0.026490526 -0.040855464 -0.040498894
000070 1b 73 e2 bb 98 da bd bd 06 e8 40 bd 00 d9 8d bd
       -0.0069106943 -0.09270209 -0.047096275 -0.06926155
000080 45 32 28 3d e6 d1 2c bd 60 fc a8 bc 0d 97 43 3d
       0.041063566 -0.042192362 -0.020628154 0.047751475
000090 2e f5 84 bd 3e eb 25 bc ec ca 82 bc 7d 93 ec bc
       -0.06492077 -0.010126887 -0.015965901 -0.028878922
0000a0 a7 dd af bc 52 45 fe bc 6e 3a af bc 3b a7 a7 ba
       -0.021467997 -0.031038914 -0.021390166 -0.0012790927
0000b0 16 4e fb ba 0a c5 6e bb 18 5d 62 3d 8a db 9b 3a
       -0.0019173052 -0.0036433362 0.055264562 0.0011890989
0000c0 69 2d 51 b9 4a b7 69 3d 90 41 4f bd 69 66 ac 3c
       -0.0001994871 0.057059564 -0.050599635 0.021044927
0000d0 ab d0 1f bc 8f d2 0a 3c db 6d 8d 3b 93 9c 80 3c
       -0.00975434 0.008473053 0.0043160743 0.01569966
0000e0 bb a8 bc 3c f5 36 51 3d 40 ff 4b 3d c4 db 5a bd
       0.023029676 0.0510778 0.049803972 -0.05343224
0000f0 aa 56 fe 3c 6b 16 a2 bc 8f 81 bb 3c a5 8a 60 bc
       0.031047184 -0.01978608 0.022888927 -0.01370493

conv2d/bias f4 [32]
000000 79 7a 89 3c e6 4e 19 bc d8 9b da 3c 89 da ac bc
       0.016782032 -0.00935719 0.02668564 -0.0211003
000010 1f ba b2 bc 03 95 40 bb dc 2c 0f 3c fd 97 ca 3c
       -0.021817265 -0.0029385693 0.008738723 0.024730677
000020 1e 7c 74 bc 78 84 11 3c 89 38 85 3c f5 c9 1d bd
       -0.01492217 0.008881681 0.01626231 -0.03852268
000030 2f f3 98 bd 29 3c c2 bc 34 33 ce bc e7 c0 38 bd
       -0.074682586 -0.023710327 -0.0251709 -0.04510584
000040 56 7e 30 3c 59 3e 8e bb 11 a8 3b bd 06 74 8e bb
       0.010772308 -0.0043409285 -0.045814577 -0.004347327
000050 1d af a9 3d d6 5c 29 bd 18 2c 74 bc 5d 1e 94 bd
       0.08285353 -0.0413483 -0.014903091 -0.07232354
000060 30 90 64 bc 85 30 f3 bd b5 9d 37 bc 17 39 91 bd
       -0.013950393 -0.11874489 -0.011207034 -0.07090967
000070 c9 d5 26 bd 17 0b 98 bd fe 21 b6 3d 19 08 2a bd
       -0.040731225 -0.0742399 0.08893202 -0.04151163

sequential/dense/MatMul i1 [10, 9216] scale=0.004856112 zero_point=0
000000 11 fd f4 08 01 fc 03 f9 ed f9 fe 1f f1 08 f6 f7
       0.0825539 -0.014568336 -0.058273345 0.038848896 0.004856112 -0.019424448 0.014568336 -0.033992782 -0.09226613 -0.033992782 -0.009712224 0.15053947 -0.07284168 0.038848896 -0.04856112 -0.04370501
000010 f8 f8 f2 13 01 03 fd 00 fb fd 01 00 00 f9 f9 fc
       -0.038848896 -0.038848896 -0.067985564 0.09226613 0.004856112 0.014568336 -0.014568336 0.0 -0.02428056 -0.014568336 0.004856112 0.0 0.0 -0.033992782 -0.033992782 -0.019424448
000020 fe fd f7 fd 01 e9 e8 ff fc fa 11 e6 fd f9 f4 15
       -0.009712224 -0.014568336 -0.04370501 -0.014568336 0.004856112 -0.11169057 -0.11654669 -0.004856112 -0.019424448 -0.029136673 0.0825539 -0.12625891 -0.014568336 -0.033992782 -0.058273345 0.101978354
000030 fa 00 fe fb 1a f1 ea 00 d7 04 12 fe f3 f9 0d 00
       -0.029136673 0.0 -0.009712224 -0.02428056 0.12625891 -0.07284168 -0.106834464 0.0 -0.19910058 0.019424448 0.08741002 -0.009712224 -0.063129455 -0.033992782 0.063129455 0.0
000040 e0 ed f6 04 08 fa f6 fd 0b f6 fe 05 ed 03 fe f0
       -0.15539558 -0.09226613 -0.04856112 0.019424448 0.038848896 -0.029136673 -0.04856112 -0.014568336 0.053417232 -0.04856112 -0.009712224 0.02428056 -0.09226613 0.014568336 -0.009712224 -0.07769779
000050 f4 ff ff 0b fc f2 f2 e9 ff fb fc f6 00 f4 f4 f0
       -0.058273345 -0.004856112 -0.004856112 0.053417232 -0.019424448 -0.067985564 -0.067985564 -0.11169057 -0.004856112 -0.02428056 -0.019424448 -0.04856112 0.0 -0.058273345 -0.058273345 -0.07769779
000060 00 ee f6 fd ff 0d eb ff ff f7 05 ec 01 e9 f7 e5
       0.0 -0.08741002 -0.04856112 -0.014568336 -0.004856112 0.063129455 -0.101978354 -0.004856112 -0.004856112 -0.04370501 0.02428056 -0.09712224 0.004856112 -0.11169057 -0.04370501 -0.13111502
000070 f9 03 e8 f4 1f ec ee f9 e2 f4 12 f7 e6 fb dd 00
       -0.033992782 0.014568336 -0.11654669 -0.058273345 0.15053947 -0.09712224 -0.08741002 -0.033992782 -0.14568336 -0.058273345 0.08741002 -0.04370501 -0.12625891 -0.02428056 -0.16996391 0.0
000080 f0 f6 f0 f9 fa ff e2 01 f0 fa f9 fb f6 10 f9 f1
       -0.07769779 -0.04856112 -0.07769779 -0.033992782 -0.029136673 -0.004856112 -0.14568336 0.004856112 -0.07769779 -0.029136673 -0.033992782 -0.02428056 -0.04856112 0.07769779 -0.033992782 -0.07284168
000090 e9 f9 f1 06 f8 f9 f7 ed fe f8 fe f8 03 fe fa e7
       -0.11169057 -0.033992782 -0.07284168 0.029136673 -0.038848896 -0.033992782 -0.04370501 -0.09226613 -0.009712224 -0.038848896 -0.009712224 -0.038848896 0.014568336 -0.009712224 -0.029136673 -0.1214028
0000a0 ec eb e8 ec fe fd fb fb fa fa 00 f7 fc 02 07 fa
       -0.09712224 -0.101978354 -0.11654669 -0.09712224 -0.009712224 -0.014568336 -0.02428056 -0.02428056 -0.029136673 -0.029136673 0.0 -0.04370501 -0.019424448 0.009712224 0.033992782 -0.029136673
0000b0 f8 fd e7 fc 07 f4 07 fe ee e9 05 e6 f0 05 e9 e9
       -0.038848896 -0.014568336 -0.1214028 -0.019424448 0.033992782 -0.058273345 0.033992782 -0.009712224 -0.08741002 -0.11169057 0.02428056 -0.12625891 -0.07769779 0.02428056 -0.11169057 -0.11169057
0000c0 ff fd fa 13 f9 f4 f7 f9 ee 06 f3 05 ff 02 00 fa
       -0.004856112 -0.014568336 -0.029136673 0.09226613 -0.033992782 -0.058273345 -0.04370501 -0.033992782 -0.08741002 0.029136673 -0.063129455 0.02428056 -0.004856112 0.009712224 0.0 -0.029136673
0000d0 fe f3 fb 02 f9 f6 ec 01 fc fd f6 04 00 ee 06 eb
       -0.009712224 -0.063129455 -0.02428056 0.009712224 -0.033992782 -0.04856112 -0.09712224 0.004856112 -0.019424448 -0.014568336 -0.04856112 0.019424448 0.0 -0.08741002 0.029136673 -0.101978354
0000e0 f0 f8 ed fc fc fe f9 f9 f8 fa f7 dd f7 fd f8 04
       -0.07769779 -0.038848896 -0.09226613 -0.019424448 -0.019424448 -0.009712224 -0.033992782 -0.033992782 -0.038848896 -0.029136673 -0.04370501 -0.16996391 -0.04370501 -0.014568336 -0.038848896 0.019424448
0000f0 fc 09 03 f2 19 e8 f2 fe 04 05 1e fe ee 10 d2 fc
       -0.019424448 0.04370501 0.014568336 -0.067985564 0.1214028 -0.11654669 -0.067985564 -0.009712224 0.019424448 0.02428056 0.14568336 -0.009712224 -0.08741002 0.07769779 -0.22338115 -0.019424448

sequential/conv2d/Conv2D f4 [32, 3, 3, 1]
000000 da 8f 4a be 36 5a 27 be c7 22 e8 3d 61 1e ae be
       -0.19781438 -0.16343006 0.11334758 -0.34007552
000010 46 15 0a bd bf bf 54 3e 9f b7 2d be 7d 5d 06 3e
       -0.033711694 0.2077627 -0.16964577 0.131216
000020 21 2c 84 3e ca c6 68 be b3 a8 f6 bd d3 a8 61 be
       0.25814918 -0.22732082 -0.120438956 -0.22037058
000030 4f 06 28 3e 4d 77 f3 bd 47 8e 01 bd 3f e3 10 3e
       0.16408657 -0.11887989 -0.031629827 0.14149188
000040 f1 5f b0 3d 32 ce 80 3e 1b 8e 5b be 1e 62 a0 3b
       0.08612049 0.25157315 -0.21440928 0.004894509
000050 3e fd 9e 3e a6 90 80 be 0e a2 9e 3d cf ed 7d 3e
       0.31052583 -0.25110358 0.07745753 0.24797748
000060 3d 36 83 be b8 a8 d4 3c 08 60 3d 3c 91 7b 7a bd
       -0.25627318 0.025959358 0.01155854 -0.061153
000070 11 11 f6 3c c7 c5 a9 3e 2f 74 b8 3d 0e 05 3e bd
       0.030037435 0.33158705 0.09006535 -0.04639154
000080 cc 29 91 bd 2b d0 4c be e9 00 9c bd b7 87 45 3d
       -0.0708805 -0.20001285 -0.07617361 0.04822513
000090 a9 c8 6b 3d 50 a9 e1 bd 4a cc b2 be 14 18 63 3e
       0.05756441 -0.11018622 -0.34921485 0.22177154
0000a0 e1 9b 42 3d 2f eb 38 be 1e f2 48 3e 53 e4 46 3e
       0.04751194 -0.18058465 0.1962361 0.19423036
0000b0 6e 20 be 3d 7e 17 cd bc 84 d9 4f 3e 97 ec e9 3c
       0.09283529 -0.025035616 0.2029782 0.028555198
0000c0 8f bb 53 3d 2a d9 5f bc 10 60 a5 3e 80 4f 9b be
       0.05169254 -0.013662616 0.32299852 -0.3033409
0000d0 56 3c 96 be 14 1a 1d be 68 a3 9f be fe 13 01 be
       -0.29342908 -0.1534198 -0.31179357 -0.12605283
0000e0 18 18 63 be a8 3f 2b bd a9 9d c3 bd 37 fe 4b be
       -0.2217716 -0.041808754 -0.09551556 -0.19921194
0000f0 8d 3b 91 3e 2f 45 5a 3e 8a 37 2e bc c6 79 32 3e
       0.28365746 0.21315454 -0.010633359 0.17429265
000100 70 5d 00 3e 3d fd 5a 3e c1 72 4a bd 84 02 88 3d
       0.12535644 0.21385665 -0.049425844 0.06641105
000110 8c 54 d4 bb 3d 44 ba be ef d4 8d be 1a 8f 87 be
       -0.0064798053 -0.36380187 -0.27701518 -0.26476365
000120 e3 ee e8 bd 5b 03 b5 3d a8 48 a6 bd e5 6e 87 3e
       -0.11373689 0.08838531 -0.08119327 0.26451793
000130 11 d9 ec 3d 54 41 44 be b5 8a 49 3e 3b 2c d3 bd
       0.1156484 -0.19165546 0.19681819 -0.10311171
000140 70 69 94 bd d8 aa f7 bd 93 10 d2 bd 87 d5 9d 3e
       -0.07246673 -0.12093133 -0.102570675 0.3082697
000150 ee eb 1a be 16 3b a7 bd 1e 7c 2a 3e 63 d3 a2 bd
       -0.15129063 -0.081655666 0.1664891 -0.07950475
000160 1d 75 02 3e af 3d 82 bd e6 58 88 be 13 94 ad be
       0.12739988 -0.063594215 -0.26630324 -0.33902034
000170 c4 50 52 be 6f b3 cd bd 5b f5 1e bd e1 ad 9a 3b
       -0.20538622 -0.1004399 -0.038808208 0.004720435
000180 ba 6e a7 3c a8 08 a3 3e da 45 a3 3d e0 e5 64 3d
       0.02043854 0.31842542 0.079723075 0.05588329
000190 17 5d e2 3d 76 97 29 3d 32 b8 45 3e e1 62 29 3e
       0.11052912 0.04140421 0.19308546 0.16541626
0001a0 03 75 13 be cb 4d 02 bd 4a 40 f5 bc b6 9a 68 be
       -0.14400105 -0.03181247 -0.029937882 -0.22715268
0001b0 1f 0d e9 3c 71 8c 8b bd 7a 31 da bd d3 52 23 3e
       0.02844864 -0.068138964 -0.10653968 0.15949564
0001c0 55 90 c3 3c 2e 29 24 3e 19 18 37 be 1c 91 d6 3c
       0.023872534 0.16031334 -0.17880286 0.02619224
0001d0 2f a8 3b 3e 8b 6e 4c 3e dd b3 06 3e 4a 1c 67 3e
       0.18325876 0.19964044 0.1315455 0.22569385
0001e0 7e e4 a8 bd 9d 8a d3 3d b5 a6 8c 3d 76 13 ad be
       -0.082467064 0.10329173 0.06867734 -0.3380391
0001f0 02 5d 2f be 31 e7 1c 3d 87 59 85 3d 16 7f 03 3e
       -0.17125323 0.03830642 0.065112166 0.12841448
000200 d0 b7 86 3e 0b 38 52 bd 84 b1 f1 bd fa f5 43 3d
       0.26312113 -0.051322978 -0.118014365 0.047842003
000210 ea dc 2b be f1 d4 41 be cd 30 0a 3e 8d a0 3f be
       -0.16783491 -0.18928887 0.13495179 -0.18713589
000220 e7 00 07 be e9 a3 e0 3d cd f7 29 3d 42 37 03 3e
       -0.13183938 0.109687634 0.041496087 0.12814048
000230 db 98 91 bd 44 4e 90 3d ef 70 9f bd f4 46 23 3d
       -0.07109233 0.07046178 -0.07785212 0.039862588
000240 2a 05 f8 bd dc 0b ac be bb 6e 74 be 5d 8f 48 3e
       -0.1211036 -0.33602798 -0.23870365 0.19585939
000250 89 aa 01 3e 74 86 9e bd a4 40 db 3d 11 2c de 3d
       0.1266271 -0.07740489 0.107056886 0.10848249
000260 e3 4f 2f 3e 77 77 9e 3e 79 e1 82 3d 91 5b b0 be
       0.17120318 0.3095052 0.06390662 -0.3444486
000270 f3 fa 87 3d 9c c4 e8 bd e9 b9 27 be 66 5c 4c 3e
       0.06639662 -0.11365625 -0.16379513 0.19957122
000280 c0 0c 35 3c 5a fc 33 bd 14 aa 18 3e 52 34 c7 3d
       0.011050403 -0.043941833 0.1490863 0.09726776
000290 14 5c 05 3e f4 7d 87 be 94 0c 97 bd e5 91 14 3e
       0.13023406 -0.26463282 -0.07375446 0.1450878
0002a0 46 b3 56 be e7 1d d1 bb 0c bc 62 3e 86 e9 1f 3e
       -0.20966825 -0.0063817385 0.22142047 0.15616426
0002b0 1a e5 40 3e 44 59 28 be a3 75 05 3d f2 67 09 3d
       0.18837395 -0.16440302 0.03258289 0.033546396
0002c0 fa f1 e2 bd 95 fb c1 3d 13 25 f2 bd d7 16 15 bc
       -0.110813096 0.094718136 -0.118234776 -0.009099684
0002d0 13 4b a0 3e dc 80 ce 3d dc 68 50 3e 1d e6 b3 3d
       0.31307277 0.10083172 0.203525 0.08784125
0002e0 fd 69 a1 3c da db 30 be ac dd 0a be e1 6e 2d be
       0.01970386 -0.17271367 -0.13561124 -0.16936828
0002f0 31 20 cd be b3 2a 95 3d 1e f4 c2 3d c6 dc 91 bd
       -0.40063623 0.07283535 0.09519218 -0.07122187
000300 26 a9 00 3e db 53 13 3e fc a5 bf 3d c5 d5 d0 bd
       0.12564525 0.14387457 0.09357831 -0.10197023
000310 81 1c 0b 3c 44 1f 41 be 78 b1 bd be c7 44 0f bd
       0.008490683 -0.18859583 -0.3704946 -0.0349777
000320 66 02 6d 3d 81 ff 1c be dd f9 09 3e 80 d3 0f 3e
       0.057863615 -0.15331842 0.13474222 0.14045525
000330 d8 6e 2d 3e 4c b7 86 3e 3d 87 40 be 00 5b cd 3c
       0.16936815 0.2631172 -0.1880159 0.025067806
000340 89 77 27 3d cf 21 70 be f7 ff 14 be 71 47 95 3d
       0.040885482 -0.23450397 -0.14550768 0.07289017
000350 1e 0e 4c bc de 34 61 3d 38 86 3d 3d b3 45 f3 3d
       -0.012454538 0.05498206 0.04627058 0.118785284
000360 bf b7 6f bd fc 1e 70 3e ad f9 87 3e 35 21 98 3e
       -0.058524843 0.2344932 0.26557675 0.29712835
000370 3f ab 51 3e b5 6d 2a be 12 72 72 3d 59 1a 68 be
       0.20475481 -0.16643412 0.059190817 -0.22666301
000380 67 61 d3 be 9a eb 9a 3b 22 2f 0b 3c bc 27 f0 3d
       -0.4128525 0.004727793 0.008495124 0.11726329
000390 5c 2a 99 3d 7a 47 bc bd 31 a8 18 3e e4 f6 6c bd
       0.074787825 -0.091933206 0.1490791 -0.05785264
0003a0 7e d0 4b be f4 4e 22 3d 5b 9d 1f be 00 39 9c bc
       -0.19903752 0.039626077 -0.1558737 -0.019070148
0003b0 e5 1a 0c be 0c 43 29 3e 1f 08 0c 3e 70 0b e7 bd
       -0.13682134 0.16529483 0.13674973 -0.112814784
0003c0 b1 43 54 3e 1a aa 83 bb 32 37 96 bd 64 17 51 3d
       0.20728947 -0.0040180804 -0.073347464 0.051047698
0003d0 3a 79 43 bd d3 57 14 be f1 8e 08 3e a6 53 19 be
       -0.047723033 -0.14486627 0.13335778 -0.14973316
0003e0 75 ec 7d bb 91 2d 55 3d cd 30 b6 3d 23 db 3f 3d
       -0.0038745676 0.05204541 0.08896027 0.046839844
0003f0 fc 59 11 be c9 97 91 bd 1c f1 93 bd 07 8d bc bb
       -0.14194483 -0.07109029 -0.07223722 -0.0057541165

sequential/conv2d_1/Conv2D i1 [64, 3, 3, 32]
000000 e5 1e b4 d2 ee dc 4c ce ef fe 37 c3 c5 9b f7 1c
       -27 30 -76 -46 -18 -36 76 -50 -17 -2 55 -61 -59 -101 -9 28
000010 3a c2 d5 9b 81 af 2d fe 93 ee 0c c8 f5 c6 3c f8
       58 -62 -43 -101 -127 -81 45 -2 -109 -18 12 -56 -11 -58 60 -8
000020 08 2f dc fe da c7 1c bf f9 cf 33 c2 ef ca f4 d8
       8 47 -36 -2 -38 -57 28 -65 -7 -49 51 -62 -17 -54 -12 -40
000030 0a bc ee c4 c5 d1 e1 f2 e0 c7 d9 ed 06 fb 28 da
       10 -68 -18 -60 -59 -47 -31 -14 -32 -57 -39 -19 6 -5 40 -38
000040 c9 19 86 db ec b0 42 fd d4 dc 1a c1 bb ea d8 e0
       -55 25 -122 -37 -20 -80 66 -3 -44 -36 26 -63 -69 -22 -40 -32
000050 0b ec be c6 fd d9 e3 f6 f7 f5 ec 02 db ce 38 ec
       11 -20 -66 -58 -3 -39 -29 -10 -9 -11 -20 2 -37 -50 56 -20
000060 13 3a e7 fd 0c 13 39 e9 ff fc f4 f8 ef e8 13 28
       19 58 -25 -3 12 19 57 -23 -1 -4 -12 -8 -17 -24 19 40
000070 0a d9 f9 d8 db e5 19 0e d8 0d 01 ff 00 d0 1d ee
       10 -39 -7 -40 -37 -27 25 14 -40 13 1 -1 0 -48 29 -18
000080 04 0e 12 e0 fc f3 36 df f2 f0 3c e3 ef 21 ce d5
       4 14 18 -32 -4 -13 54 -33 -14 -16 60 -29 -17 33 -50 -43
000090 fe e2 16 de ae 01 18 ff 20 d8 1b 0e 17 c1 00 0a
       -2 -30 22 -34 -82 1 24 -1 32 -40 27 14 23 -63 0 10
0000a0 ea f2 85 9c 1a c9 46 cc f7 c7 f6 f5 ec d0 ab 0e
       -22 -14 -123 -100 26 -55 70 -52 -9 -57 -10 -11 -20 -48 -85 14
0000b0 2e f2 bc ea c2 e9 14 f1 c2 e1 07 0e 1f bc 38 f8
       46 -14 -68 -22 -62 -23 20 -15 -62 -31 7 14 31 -68 56 -8
0000c0 1b e7 f8 ef e5 50 ea 0d 08 e4 ca f3 2a 00 3e 0e
       27 -25 -8 -17 -27 80 -22 13 8 -28 -54 -13 42 0 62 14
0000d0 01 1d 3d 15 ab 12 d5 fa cb 04 0a dd f6 d5 15 01
       1 29 61 21 -85 18 -43 -6 -53 4 10 -35 -10 -43 21 1
0000e0 0f e3 45 fd 0d 12 f2 01 eb 0c 0a f9 0a f5 13 fc
       15 -29 69 -3 13 18 -14 1 -21 12 10 -7 10 -11 19 -4
0000f0 f8 fa 1c fe b9 ef 12 ee ba 08 e7 f2 13 f1 f2 f4
       -8 -6 28 -2 -71 -17 18 -18 -70 8 -25 -14 19 -15 -14 -12
